…
1916  619MYTG7OTT0   out  [0, 0, 1, 0, 0, 0, 0, 0, 1, 0, 0, 0, 0, 0, 0, ...
1917  BWJ683S12AE4  play  [0, 0, 1, 1, 0, 0, 0, 0, 0, 0, 0, 0, 0, 0, 0, ...
1918  3SVC1ETTJ6S4  play  [0, 0, 1, 1, 0, 0, 0, 0, 0, 0, 0, 0, 0, 0, 0, ...

[1919 rows x 3 columns]
(1919, 78)
(1919, 5)
(1919, 360, 2048)
(1700, 360, 2048)
(1700, 5)
(1700, 78)
(219, 360, 2048)
(219, 5)
(219, 78)
building the model ...
Model: "sequential"
_________________________________________________________________
 Layer (type)                Output Shape              Param #   
=================================================================
 dense_1 (Dense)             (None, 256)               20224     
                                                                 
 Bn_1 (BatchNormalization)   (None, 256)               1024      
                                                                 
 Drop_1 (Dropout)            (None, 256)               0         
                                                                 
 dense_2 (Dense)             (None, 256)               65792     
                                                                 
 Bn_2 (BatchNormalization)   (None, 256)               1024      
                                                                 
 Drop_2 (Dropout)            (None, 256)               0         
                                                                 
 dense_out (Dense)           (None, 5)                 1285      
                                                                 
=================================================================
Total params: 89,349
Trainable params: 88,325
Non-trainable params: 1,024
_________________________________________________________________
None
Epoch 1/100
  1/107 [..............................] - ETA: 9:44 - loss: 2.4081 - categorical_accuracy: 0.2500
…
